saved_models/chord_model_lay12_rh1_rw_ep50.pt (torch_old, 83333 bytes, 27 tensors)

weight_node f4 [1, 32]
00000000: bfdd c8ba f099 cc3d 514c 0c3f 31cf 94b9
00000010: 4712 ab3c 01ff ddb8 c657 a3ba 1531 bb3e
00000020: 0691 559f 3ac0 ae89 a146 f2ba a323 0080
00000030: ddda 92a3 76dc 05be 7920 0000 6bc4 b1bb
00000040: cd77 673b 7578 cc3e 27e7 e3ab 1cf0 85ba
00000050: 3eb5 393d c58f 063d 38f0 47ba 91e5 383e
00000060: 17f9 c7bd 190c 92a1 e162 553e e983 b29f
00000070: cfcd 06bc 7115 0dba d7ed 183d 4418 293e
-0.0015324875 0.09990299 0.5480395 -0.0002838313 0.020882739 -0.000105855994 -0.0012462072 0.36560884
-4.5224465e-20 -4.2069745e-33 -0.0018484184 -1.2784e-41 -1.5922044e-17 -0.1307238 1.1649e-41 -0.005425026
0.003531921 0.3993565 -1.6193478e-12 -0.0010218653 0.04533886 0.032851953 -0.0007627043 0.18056323
-0.09764307 -9.896547e-19 0.208385 -7.560416e-20 -0.0082277795 -0.0005381918 0.037336197 0.16513163

bias f4 [32]
00000000: f4c0 783d 607a f6bc cfd5 1abe 71a4 5b3e
00000010: f28d 45bc f453 f6b8 95d7 bc3d 1507 12be
00000020: 6bdb 2ba5 880c 0080 b6dc 583d e536 0d83
00000030: 9f12 0080 ca2b 55bc cc47 8d89 e279 053d
00000040: 90ea df3a 3e3c 08be eaee 68b2 a1c4 3a3e
00000050: aa75 553d d34f 31bc 514d 9f3c 28ad 98bd
00000060: 154b 7c3e 0952 8fae 33f3 adbd d0c8 8fa5
00000070: 4d25 a83e 2568 9a3d 9df3 98bc 4bfc 8cbd
0.06073089 -0.03008765 -0.15120624 0.21449448 -0.012057768 -0.000117458316 0.092208065 -0.14260514
-1.4906227e-16 -4.495e-42 0.05294486 -4.149919e-37 -6.68e-42 -0.013010928 -3.4012033e-33 0.03258694
0.0017083455 -0.1330423 -1.35585e-08 0.1823907 0.052114166 -0.010822254 0.019446047 -0.07454902
0.24638017 -6.5174595e-11 -0.08493652 -2.4942622e-16 0.32840958 0.07539395 -0.018670851 -0.068840586

weight_node f4 [32, 32]
00000000: 6dcd a2ba 44fc 693c 75ce b13d 139a 89ba
00000010: 9262 b43b 9631 d3b5 b717 09ba 61a5 ac3d
00000020: 63b0 df9c 8ccc 4295 5651 c3ba dd0b 0080
00000030: f421 0080 3be4 dabc af00 0000 ec96 35bb
00000040: 7b98 e7ba f1eb 2a3d d622 0000 fe1b 553a
00000050: 9c29 e43b bfbc 193a 9ef5 67ba 1b41 58bb
00000060: 6e18 04bd 0c05 2f3d e151 b93c 7919 0080
00000070: a929 0eba 264d c739 cdf7 1e3c 2c42 8f3c
00000080: 517e 3a3b 145b 71ba 42b9 bd3a 2ba1 883b
00000090: 433e 29bb 4185 bfa5 5567 de3a ffed 5ebb
000000a0: 7787 cc98 71af d692 c537 4b3b 6d2d 0080
000000b0: dd19 0080 0d9e 923c ad05 0080 6156 3039
000000c0: da13 203a 5487 433b 8e04 0080 641c 123b
000000d0: 485c df3b a47c 2d38 5012 2c3a ab9b 153d
000000e0: 2251 303d 4115 0cbb 9577 b0ba 4e20 0000
000000f0: 2786 af3c 031d 593b 5717 ae38 01dd 13ba
00000100: 4271 713c 3e3c b6bb 44f7 963b cb9c be3c
00000110: eba0 70bc d4a9 e3b6 3412 1e3c f15b d7bc
00000120: 784b 7d1c d1c7 1496 d94e 883c c12f 0000
00000130: ac43 0000 3c6f d93d 851d 0080 d116 4f3a
00000140: 6fd1 ca3b d2db 443c 504f 349d 57db 3a3c
00000150: e0b9 f83c b594 00b9 b605 853b 06cb 2b3e
00000160: d058 703e 2b04 53bc 08a4 15bc b410 0080
00000170: 70ee ea3d bb2c 913c d3db daba 8a4e a3bb
00000180: 1040 3cbb c5d5 fd3c 6e0a 293e bfaf 873b
00000190: 7c82 053c 3fd0 02b7 12e1 a4ba 2c9a a73d
000001a0: 3d5b 629d 53b3 1c96 8e5e 5fbb 3e09 0000
000001b0: 3e6e db81 0670 68bd e590 0b84 37e5 d8bb
000001c0: 9a5d 4cbb b00a bb3d 7b95 2a96 1ec8 c83a
000001d0: e61d 493b 05bb a63a 95ff 12bb 097e 46bb
000001e0: 7b2e 8abd da86 c33d b428 263d a113 0080
000001f0: 5c4f e139 a857 563a 216e 4f3c 1936 003d
00000200: 2fac 2f3a e187 f3b8 fece 5739 2d74 f839
00000210: 2da8 efb9 19e6 2496 93e7 8b39 5b7a 1c3a
00000220: 1a75 151a 9cd7 1215 8704 373a db2a 0000
00000230: fe0e 0000 8cf9 743b 224b 0080 2a68 9c39
00000240: 577c 5b39 70dd a13a 782d 0000 1df9 21b9
00000250: 907f 553a 2770 9a38 fc1a 2139 d24c 033c
00000260: d270 1d3c d99b a5b9 d4c8 0b39 7f3b 0000
00000270: ec15 803b 796e c939 3e88 a43a b438 a539
00000280: 4077 9eb1 d2f1 8127 4b2b 4936 fc27 8935
00000290: 6f3d 0134 e1c5 40b1 3184 a9b1 e1ea 0b39
000002a0: ebcf f493 7b25 0000 1ed6 b7ae 6323 0000
000002b0: 7827 0080 084d 8fb5 820b 0000 0837 7ab2
000002c0: 32e2 16a9 d0eb c034 f611 0000 3b1e 7ab2
000002d0: 84d8 b435 9187 a8aa 1711 60b0 d9d8 04af
000002e0: 6a99 a6b6 51ce 6633 770b 9235 4318 0000
000002f0: 8a77 5bb3 65a1 82b1 fae2 9231 2be0 3b36
00000300: 55cb abba b4d8 793c 6df7 ca3d feae 003a
00000310: f284 bc3b feed 92b6 c613 0fba 89ff fa3d
00000320: 24e4 009d bd39 7e95 064c cbba ac06 0080
00000330: ea00 0000 81f9 06bd 5314 0080 6dc0 45bb
00000340: c14b f0ba 143f 403d b0d5 0203 a5c8 583a
00000350: a302 133c bc27 203a b952 76ba e095 54bb
00000360: 8986 1bbd 219d 3f3d 9d9a d53c 6901 0000
00000370: 49de 9ab9 8e2a d739 6897 233c d9c9 8f3c
00000380: ecd6 333c 7fc0 1cbb 02a6 083b 5165 0c3c
00000390: b462 01bc f0fe cdb4 ca98 a73b 5f60 a13b
000003a0: 1f4f bd9b 7116 dd14 2317 4a3c 402c 0000
000003b0: 571a 0080 a408 8e3d ae19 0080 60c1 8c3b
000003c0: 5a52 953b c76b 9d3c 800a 9d09 6c4f f1ba
000003d0: 09c5 533c 546c 453a f6e0 3b3b 47d9 053e
000003e0: 43a0 2f3e d21f c8bb 6092 8b3a 2015 0000
000003f0: af32 973d 4924 ec3b 4ffb 883c 599a 903b
-0.0012420841 0.014281336 0.08681957 -0.0010498188 0.0055049146 -1.5735156e-06 -0.0005229669 0.08429981
-1.4802497e-21 -3.9339347e-26 -0.0014901559 -4.256e-42 -1.218e-41 -0.026720157 2.45e-43 -0.0027708365
-0.0017669344 0.041728918 1.2497e-41 0.00081294763 0.006962968 0.0005864612 -0.00088485505 -0.003299779
-0.03224986 0.042729422 0.02262205 -9.138e-42 -0.0005423078 0.00038013718 0.009702635 0.017487608
0.0028456638 -0.0009206992 0.0014474767 0.0041696033 -0.0025824464 -3.3223515e-16 0.0016968051 -0.0034016368
-5.286955e-24 -1.3548548e-27 0.0031008583 -1.6296e-41 -9.278e-42 0.01789763 -2.036e-42 0.00016816847
0.0006106474 0.00298353 -1.634e-42 0.0022294754 0.0068164207 4.1362495e-05 0.0006564008 0.03652541
0.043046124 -0.0021374973 -0.0013463373 1.1589e-41 0.021426274 0.0033128865 8.301314e-05 -0.0005640537
0.014736475 -0.0055613806 0.004607113 0.023268124 -0.014686803 -6.784898e-06 0.009647895 -0.026288958
8.380822e-22 -1.2018396e-25 0.01663916 1.7131e-41 2.4276e-41 0.106169194 -1.059e-41 0.0007899823
0.006189517 0.0120153 -2.3863805e-21 0.011404834 0.03036207 -0.00012262429 0.0040595187 0.16776666
0.2347138 -0.012879412 -0.009133346 -5.992e-42 0.114712596 0.017721524 -0.0016697593 -0.004983728
-0.0028724708 0.030985722 0.16507885 0.0041408236 0.008148786 -7.79709e-06 -0.0012579283 0.08183703
-2.995802e-21 -1.2658164e-25 -0.0034083459 3.315e-42 -8.0606084e-38 -0.05674746 -1.6405904e-36 -0.0066191214
-0.003118372 0.09132898 -1.3779658e-25 0.0015318429 0.0030687987 0.0012720531 -0.002243017 -0.0030287525
-0.06747147 0.09547205 0.04056616 -7.042e-42 0.00042974472 0.0008176514 0.012660534 0.03130159
0.00067013776 -0.00011612452 0.00020581108 0.00047388804 -0.00045710933 -1.332042e-25 0.00026684682 0.000596916
3.0907072e-23 2.965455e-26 0.00069815706 1.5374e-41 5.378e-42 0.0037380187 -2.6953e-41 0.00029832247
0.00020931788 0.0012349319 1.6311e-41 -0.00015446958 0.00081443135 7.364182e-05 0.00015364209 0.008013921
0.009609418 -0.00031587368 0.00013330887 2.1343e-41 0.0039088633 0.00038420016 0.001255281 0.000315135
-4.6119624e-09 3.6066875e-15 2.9976534e-06 1.0218932e-06 1.203641e-07 -2.8052158e-09 -4.9335758e-09 0.00013343572
-6.1799282e-27 1.3445e-41 -8.3599114e-11 1.2694e-41 -1.4159e-41 -1.0676749e-06 4.128e-42 -1.4564428e-08
-3.3502884e-14 3.5934363e-07 6.443e-42 -1.4558789e-08 1.3474059e-06 -2.9936863e-13 -8.151501e-10 -1.208237e-10
-4.9650453e-06 5.373869e-08 1.0881184e-06 8.703e-42 -5.109863e-08 -3.8018464e-09 4.2749635e-09 2.7995654e-06
-0.0013106862 0.01524942 0.09910474 0.00049088884 0.005753153 -4.378845e-06 -0.00054579636 0.12255771
-1.7058605e-21 -5.134044e-26 -0.0015510328 -2.393e-42 3.28e-43 -0.03295279 -7.291e-42 -0.003017451
-0.0018333123 0.046935156 3.8448868e-37 0.00082696445 0.008972797 0.00061094365 -0.0009396482 -0.0032437965
-0.0379701 0.04678071 0.026074702 5.06e-43 -0.00029538784 0.000410397 0.0099848285 0.017552303
0.010976534 -0.0023918448 0.0020850901 0.008569078 -0.007897068 -3.8369717e-07 0.0051146494 0.0049248184
-3.1318558e-22 2.2324149e-26 0.012334618 1.5874e-41 -9.449e-42 0.06935242 -9.212e-42 0.004295513
0.004556936 0.019216431 3.780625e-33 -0.001841051 0.012925395 0.0007531096 0.0028668023 0.13071166
0.17150979 -0.006107309 0.0010648482 7.578e-42 0.07382714 0.007206474 0.016721396 0.004412931

bias f4 [32]
00000000: cd6a 28bc ecb5 37bd 656b 81be cdad e43d
00000010: 7e5d c9bc d17d 61b9 95ab ebbb aeee 59be
00000020: 00da a89e aed7 3b97 2d62 853c 15cb 8782
00000030: 061e 0000 212a 0cbe 9d24 4c8d 246f c0bc
00000040: 4f13 d93a c03d 41be 198c 43b2 79e8 3b3d
00000050: 5fed 843b d285 f5bb 2dbd 9ebc 78b0 adbd
00000060: 781d 6e3e 43e4 54bd 9cab b3bd f42a d5a1
00000070: 85a5 5e3e f845 003d 0188 7ebc 6f5f 9fbd
-0.01027937 -0.04485123 -0.25277248 0.11165962 -0.024580713 -0.00021504542 -0.007192085 -0.21282455
-1.7877855e-20 -6.0695185e-25 0.016282165 -1.995303e-37 1.077e-41 -0.13687946 -6.2906425e-31 -0.023490496
0.001656154 -0.18871212 -1.1382348e-08 0.045876 0.004056617 -0.0074927593 -0.019377315 -0.08480924
0.23253429 -0.0519755 -0.08772966 -1.4444811e-18 0.21742828 0.031316727 -0.015535356 -0.077818744

weight_node f4 [32, 32]
00000000: 6021 27bb 944c a93b 6d3c e33c 78cb 193b
00000010: a6c9 9d3b abab 0e3c f789 fdba 97cd fb3c
00000020: 160e 0000 aacb 2002 7ad5 0dbb 3500 0080
00000030: 4104 0080 8882 86bb a720 0000 9119 57bb
00000040: a1ed 30bb f040 d7b9 aef7 2cb9 831f a63a
00000050: a289 f53b a7c4 ccba 9cd4 8bba e2d8 e4bc
00000060: d129 15bd c375 9d3c 1184 003b 4026 0080
00000070: ffea a1bb 0e32 8839 6147 7d3c 8f8c 8c3b
00000080: d11f 1e3b 432a 32ba 3ebb 473b 5425 86ba
00000090: 455f cebb d5f5 623a a908 ecba 5250 43bc
000000a0: c808 0080 96e7 8694 332f 873b 5319 0000
000000b0: 6b24 0000 c0fd f63c 6325 0000 4370 3abb
000000c0: 2fc8 123a e20c c73a bc67 62b7 5f3b 19b9
000000d0: a826 1d3c 9e02 38b9 7c69 70ba a397 883d
000000e0: 9a62 913d f437 6eba 48db eaba b90d 0000
000000f0: 6421 1f3d e877 9a3b d33b 47bb 2451 abba
00000100: 0dbe 173c 0444 60bb 9a74 753b 4cf8 4cbc
00000110: 1eda e5bc 8d81 443b 5e17 35bc 62e6 9bbd
00000120: 23b6 5719 6e9c 0da5 30bb b53c 0923 0080
00000130: 2406 0080 9639 983e 4854 0684 c879 6bbc
00000140: 4949 e03c 75c9 f93b 82ff 2aba bec8 ffbb
00000150: e1f0 973b 9492 b1ba abe2 b0bb 702f 873e
00000160: 4e20 cd3e 035c 53bc 9124 26bc 9d12 0000
00000170: 1989 533e fe9d bf3c 4ddc a23c f256 e2bb
00000180: d8e2 05bc 8154 623c 727a 8b3d 3384 61bb
00000190: 2a8e db3b 6b2d ad3c 2d6e c5bb af23 893d
000001a0: 4c10 0000 193a 9807 bd53 d9bb 470e 0000
000001b0: 5b99 a392 aec4 89bd 485e 179b 7462 3cbc
000001c0: f68a 32bc f841 d0ba 958f aeb9 7844 c73b
000001d0: 3d79 883c 5464 bebb 915e 64bb dd44 9abd
000001e0: 22e0 9fbd 0616 4c3d 8140 ff3a 7419 0080
000001f0: 62da f6bb e7d2 0f3b 10b0 a13d 0454 fb3b
00000200: 09b9 823a 9211 a8b9 0042 f8ba 0e26 88ba
00000210: e2c7 a9ba 943e d83a c50a b8b9 be7b 73ba
00000220: 9500 0000 e875 7880 bb48 993a 7913 0080
00000230: 0c06 0000 db0a 2d3c 784d 0000 22cd 4139
00000240: 4382 5339 4c7c 8839 16f2 0ea9 7c9c acba
00000250: 3e52 363a cf84 86b1 a064 1cb9 1dc5 8f3c
00000260: 67e5 913c d879 8fba ae98 6bb9 a54a 0080
00000270: ffc1 033c 0e8b d439 793a 0f3b bd04 b438
00000280: 372c 51b1 d18f 9c2f abec 9d34 93f7 2933
00000290: 2f8b 35b3 6695 7831 8b2d 2cb1 d9de 8035
000002a0: 9eef 66a9 fe97 7089 0caa 8c29 9712 0000
000002b0: 7a37 ba8f 3716 18b4 491f d41f 7eae cbb2
000002c0: 031d f1b1 2004 b931 993a 0107 162a 3530
000002d0: 2696 c935 3149 8296 a7d2 5bb2 528c 0334
000002e0: 6d99 9e32 86c0 8134 51a6 82b3 8e22 0000
000002f0: f04d 42af 238b c3a8 346a 6cb6 a1fd 4433
00000300: 2500 38bb 64e3 b33b a835 163d 9bb2 773c
00000310: 7550 c23b c7d8 0b3c 5b27 07bb 7742 1f3d
00000320: 0814 5826 0e22 c915 daa4 1bbb 0215 0000
00000330: b839 2390 ac6d 55bc bd54 109f 23a5 79bb
00000340: 51cb 56bb 89b5 1eba 7bef 39b9 33e6 eb3a
00000350: 0ce1 9a3c 22bf ddba fa47 99ba e1df f9bc
00000360: 3ee0 43bd 9c9b 993c 28c9 bcb8 891f 0080
00000370: e31d 9abb 84f0 f839 d365 173d fe62 893b
00000380: 27b1 123c 8661 74bb 3277 f9bb edf8 edbb
00000390: 8571 9cbc 2d09 173c bbf0 c3bb e874 c3bc
000003a0: ad9d 2fa2 5d73 80a3 7061 813c 281c 0000
000003b0: 2d1f 0080 185a d23d 4103 0080 177e 73bb
000003c0: 7c31 8e3c 4c90 6f3b 2017 9eb9 52c7 2cbc
000003d0: b9ce 5f3b d5c5 23b9 4c8c 2dbb d5a0 833e
000003e0: 9b68 933e 5427 16bc badf 92bb fc1a 0080
000003f0: cc1c e03d f3b3 393c 77dc 203d d08d 04ba
-0.002550207 0.0051665995 0.027738774 0.0023467224 0.004815298 0.008707921 -0.0019343485 0.030737681
5.053e-42 1.1813392e-37 -0.0021642135 -7.4e-44 -1.526e-42 -0.004104916 1.1713e-41 -0.0032821635
-0.0026997107 -0.00041056378 -0.00016495466 0.0012674186 0.0074932138 -0.0015622572 -0.0010668221 -0.027935449
-0.036416832 0.019221192 0.0019609968 -1.3722e-41 -0.004941344 0.00025977235 0.015458913 0.004289217
0.002412785 -0.00067964586 0.0030476595 -0.0010234513 -0.006297978 0.00086578476 -0.0018007952 -0.011921005
-3.15e-42 -1.3621887e-26 0.0041254996 9.085e-42 1.3064e-41 0.030150294 1.3412e-41 -0.002844826
0.00055992877 0.0015186334 -1.3494802e-05 -0.00014613334 0.009591736 -0.00017548582 -0.0009170992 0.066695474
0.07098885 -0.0009087317 -0.0017918134 4.923e-42 0.038850203 0.004714001 -0.0030400648 -0.0013070446
0.00926162 -0.0034220228 0.0037453533 -0.01251037 -0.028058108 0.0029984445 -0.011052934 -0.076123014
1.1152022e-23 -1.2282801e-16 0.022183985 -1.2568e-41 -2.203e-42 0.29731435 -1.5790324e-36 -0.014372297
0.027378695 0.0076228925 -0.0006523059 -0.0078059128 0.0046368693 -0.0013547712 -0.0053981147 0.2640338
0.4006371 -0.012900355 -0.010140554 6.677e-42 0.20657767 0.023390766 0.019880438 -0.0069073373
-0.00817176 0.013814093 0.06810464 -0.0034411072 0.006700297 0.021139821 -0.006025097 0.06696259
5.846e-42 2.2904565e-34 -0.006632297 5.122e-42 -1.0324551e-27 -0.06726967 -1.2520891e-22 -0.011498082
-0.010897389 -0.0015888801 -0.00033294843 0.00608116 0.016659373 -0.0058103 -0.0034846405 -0.07532666
-0.07806422 0.04982569 0.001947418 -9.131e-42 -0.0075333575 0.0021945776 0.078949094 0.0076699276
0.0009973358 -0.00032056548 -0.0018940568 -0.0010387318 -0.0012953246 0.0016498142 -0.0003510324 -0.00092881534
2.09e-43 -1.1062556e-38 0.0011694649 -6.985e-42 2.169e-42 0.01056167 2.779e-41 0.00018482332
0.00020171054 0.0002603255 -3.174031e-14 -0.0013169195 0.0006955004 -3.915012e-09 -0.00014914805 0.017550046
0.017809583 -0.0010946346 -0.00022468224 -2.6777e-41 0.008041858 0.00040539395 0.002185492 8.5839514e-05
-3.0438636e-09 2.8478422e-10 2.9415727e-07 3.9573546e-08 -4.2268933e-08 3.6173673e-09 -2.5055182e-09 9.6016e-07
-5.1278094e-14 -2.8960416e-33 6.2467474e-14 6.669e-42 -1.8362385e-29 -1.4164185e-07 8.983725e-20 -2.371166e-08
-7.0173214e-09 5.3846776e-09 9.722102e-35 6.5907224e-10 1.5019366e-06 -2.1048823e-25 -1.27953745e-08 1.2251374e-07
1.846339e-08 2.4168202e-07 -6.0838495e-08 1.2396e-41 -1.7671886e-10 -2.170969e-14 -3.5228559e-06 4.586548e-08
-0.0028076258 0.0054897536 0.036672264 0.015118266 0.0059300014 0.00853557 -0.0020622823 0.038881745
7.49672e-16 8.123698e-26 -0.0023749382 7.536e-42 -3.2190547e-29 -0.013026636 -3.056328e-20 -0.0038092814
-0.0032774995 -0.00060542725 -0.00017732188 0.0017997682 0.018906139 -0.0016917924 -0.0011694424 -0.030502262
-0.047821276 0.018750958 -9.002007e-05 -1.1313e-41 -0.00470327 0.00047481444 0.03696234 0.004192709
0.008953369 -0.0037289574 -0.007613086 -0.0072623403 -0.0190971 0.009218496 -0.005979625 -0.023859456
-2.3800395e-18 -1.3926646e-17 0.015793532 1.01e-41 -1.1184e-41 0.1027109 -1.167e-42 -0.0037154013
0.01735758 0.0036554513 -0.00030153338 -0.010545569 0.0034150316 -0.0001561859 -0.0026481329 0.25708643
0.28790745 -0.00916465 -0.0044822367 -9.68e-42 0.109429926 0.011334407 0.03927275 -0.0005056532

bias f4 [32]
00000000: 750c ddbc 98b4 98bc c888 c7bd d56e 8b3d
00000010: 8ee4 a2bc 1293 b3bd 34ea 0abd bf07 02be
00000020: 3c5d d7a8 1346 33a7 f9b7 ba3b a817 0080
00000030: 29bc e482 18df f0bc a2b4 649c 9123 eabc
00000040: 00e1 9b3c df9b 44bd 5e50 0eba cfb6 cf3c
00000050: 9c60 8dbb d3f4 8233 1dbd a4bc eb9d 41bd
00000060: d0db 833e a493 ecbb 8b33 94bc 2e15 0080
00000070: 4cdc 2e3e 0736 cc3c 0780 f8bd 5644 d1bc
-0.026983479 -0.018640801 -0.09742886 0.06808249 -0.019884374 -0.08768286 -0.03391476 -0.12698267
-2.3910229e-14 -2.4879227e-15 0.005698201 -8.486e-42 -3.3609588e-37 -0.029403254 -7.5672334e-22 -0.028581413
0.019028187 -0.048000213 -0.0005428846 0.025355725 -0.0043144953 6.09813e-08 -0.020109707 -0.047269743
0.2575364 -0.0072197486 -0.018090984 -7.598e-42 0.17076224 0.024928106 -0.12133794 -0.02554528

weight_node f4 [32, 32]
00000000: f4c9 e8ba 10af b73a 2598 8a3b 938c 9e3b
00000010: 2a44 8d3b c50f cc3b c557 ffba 3790 543c
00000020: c5a2 f283 f12b 9002 e654 8eba dd55 c33b
00000030: eb12 0080 2ce7 733b cb03 0000 f23d 733b
00000040: bf03 8d3c 5ad7 4ebc 897a b7b8 6fa8 3539
00000050: 1918 8c3b f68b 2a3b e2a2 3dba a654 5ebc
00000060: c34b 3fbc c256 fe3b 6533 2ebb d520 0000
00000070: 8edb e4ba bca3 30b9 2395 963c 219d e13a
00000080: f477 50b9 85cd 20ba 5f6b 9f3b 1c45 17bb
00000090: 6820 d3bb e2e6 67bb 3c8f 00bb 83f6 9cbc
000000a0: 7a02 0000 7532 3499 ab11 a13a d06b 1dbc
000000b0: 740c 0000 d3b0 e83b 0a09 0000 2e75 b5bb
000000c0: 98a2 98bb e4e4 803b 8cd3 c8b8 9e96 3bba
000000d0: 9fe5 3a3c e475 09bc 1694 9eba 37d3 5a3d
000000e0: 369f 263d 09e4 3eba d82e 80bb 7523 ba86
000000f0: c200 fa3c 74a5 c33a a940 a1bb 5361 b9ba
00000100: f540 c0bb bb83 55bb 11aa 86bc 3f0b 1dbc
00000110: 8c8e 3ebc d4e9 13bc 795b 28bc d403 abbd
00000120: 8241 7eb3 1ffc 4da3 071a dd3b cf56 46bd
00000130: 0c19 0080 8a91 3ebc 0b6e 998d 7b0e f1bc
00000140: 3528 ffbc f581 933c c52b 4eba a70a fbbb
00000150: 508f b93c 6add 1abd d9da cfbb c524 893e
00000160: c321 913d f552 75bb a3f4 aebc 87a6 619a
00000170: 6c47 513e 6c9a c73b b4f0 36bd 44cc d4bb
00000180: 98ac 07bc d250 763b cd92 863c 4b9d 0c39
00000190: 06be d63a 91c2 e83b 50ee 07bc 5f3a 95bc
000001a0: d8e8 44ae 42a6 3304 96da a5bb 21ac ef3b
000001b0: e667 08a1 c7ff abbc 9802 819f d729 7d3b
000001c0: cece 593d 1795 35bd d8b3 55b9 c660 f13b
000001d0: 312b 823c 0b09 80bc 198d 4cbb f091 4abd
000001e0: 4a91 c0bb aee8 c13c 2ebb 20bc 762f 60a3
000001f0: ac5c 283c 8040 663b c2cf 22bd f33f a6b9
00000200: 6efa 5c3a 2ad8 93b9 4244 52bb e2bb d7ba
00000210: 53f8 af3a 5040 e43a d2a4 7eb9 c795 03bb
00000220: da01 0000 f362 7694 b1ac d639 ab4e 163a
00000230: 713d d513 53be f03b 8d5f 3e91 4d6d f837
00000240: 7860 98ba 5bfe b73a a9cb 9bb4 a1ee 50bb
00000250: 3b13 96ba 82e8 c33a 8d82 89b9 f988 943c
00000260: 0ea0 a83b 4c53 a1ba f845 70ba 1dec 719c
00000270: dd1b e43b 6e9c cdba 749f af3b 9c13 1a39
00000280: 4533 df39 6f97 33ba 864d 4fbb 06c9 303b
00000290: 4a49 bfb8 7d4b 243b 9e37 82ba d189 8abb
000002a0: f601 0000 cdc4 898a 5c89 973a 28f3 22ba
000002b0: 590e ef89 08e1 2d3c 29c6 648f 60fc 6dba
000002c0: 2e0d a739 e661 323b 69dd 0eb7 9ee7 1bbb
000002d0: 264a c03a b563 683a d8e5 35ba 89e7 0d3d
000002e0: b00b a13c 9107 baba 948a 05bb 3666 628b
000002f0: d075 8c3c 64df 90b9 e8c5 033c 45a0 bb39
00000300: 40e5 d8ba bf87 9c3a 7607 c23b 3013 5d3c
00000310: 4744 ac39 518a 3f3b ebce f2ba 75fa 953b
00000320: f806 a581 c724 2285 f15d 9fba b44f 113a
00000330: dbdd 8a9a 5a0a bdbb f7e9 7e9d 869c c43a
00000340: d8b9 373c e2fb 2dbc 53cd fbb8 74c2 bc3a
00000350: 1721 063c f60b 7bbb cb50 35ba 8b95 36bc
00000360: ea41 61bb e5bc f13b 0647 56bb 3442 0e97
00000370: f8c3 73ba 839e 313a 384f 333b 13ac a539
00000380: 7c35 b23a ddfb 1dbb 603b ae3c 03dd 96bc
00000390: 0cd5 e7bb c903 483b 8f10 9ebb 1dc2 0abd
000003a0: 21d9 30ab 5070 dca6 e097 be3b 3b8e 52bc
000003b0: 2f21 8412 4463 033d acc4 009f a007 28bc
000003c0: f438 f0bc f829 873c 20be f4b9 9d56 61bc
000003d0: dbfa b8ba 23d2 bebb a8db 62bb 670e 533e
000003e0: a34c a73d 96b7 f9bb e910 2abc 332b 36a9
000003f0: e183 913d aaf5 20bb c552 17bc a312 42ba
-0.0017760382 0.0014013965 0.004229563 0.004838535 0.0043111043 0.006227466 -0.0019481113 0.012973837
-1.4260852e-36 2.118412e-37 -0.0010859042 0.0059611634 -6.786e-42 0.0037216647 1.36e-42 0.003711578
0.0172137 -0.012624586 -8.748944e-05 0.00017324252 0.0042753336 0.0026023365 -0.0007234049 -0.013569986
-0.011675778 0.007761807 -0.0026580926 1.1778e-41 -0.0017460452 -0.00016845664 0.01838166 0.0017212966
-0.00019881112 -0.00061341404 0.0048650946 -0.0023081964 -0.006443072 -0.003538542 -0.0019616624 -0.019160515
8.88e-43 -9.315972e-24 0.0012288591 -0.009608224 4.467e-42 0.007101157 3.243e-42 -0.0055376505
-0.0046580546 0.003933536 -9.576147e-05 -0.00071559276 0.011407285 -0.008389924 -0.0012098576 0.053424086
0.04067918 -0.00072819047 -0.003911834 -7.0017523e-35 0.03051794 0.0014926628 -0.004921038 -0.0014143385
-0.0058671185 -0.0032579738 -0.016438516 -0.009585201 -0.0116306655 -0.009027917 -0.010275715 -0.083503395
-5.9198562e-08 -1.1166461e-17 0.0067474875 -0.04842263 -8.985e-42 -0.011631379 -9.455845e-31 -0.02942585
-0.031147102 0.018006304 -0.00078647985 -0.007661182 0.022651345 -0.037808813 -0.0063432273 0.26785865
0.07086518 -0.003743348 -0.021356886 -4.666343e-23 0.20437402 0.0060914066 -0.044663146 -0.006494077
-0.008280896 0.0037584794 0.016427422 0.00013410037 0.0016383536 0.0071032722 -0.008296564 -0.01821631
-4.4772047e-11 2.111769e-36 -0.005061458 0.0073142205 -4.62161e-19 -0.020995988 -5.4637916e-20 0.0038629675
0.05317574 -0.044331636 -0.0002038026 0.0073662726 0.015889736 -0.015629312 -0.003121203 -0.049455583
-0.005876695 0.02367052 -0.009810252 -1.21531146e-17 0.010276001 0.003513366 -0.039748915 -0.00031709633
0.0008429651 -0.0002819908 -0.0032084142 -0.0016459192 0.0013425447 0.0017414186 -0.00024284728 -0.0020078288
6.64e-43 -1.243934e-26 0.00040945926 0.00057337683 5.3829345e-27 0.007346907 -1.5017801e-28 2.9614801e-05
-0.001162543 0.0014037596 -2.9019182e-07 -0.0031880515 -0.0011449823 0.0014946612 -0.00026227944 0.01813172
0.005146033 -0.001230815 -0.00091656996 -8.004538e-22 0.0069613294 -0.0015686878 0.0053595845 0.0001469389
0.00042572073 -0.00068508735 -0.00316319 0.0026975288 -9.121241e-05 0.0025069409 -0.0009934788 -0.004227855
7.03e-43 -1.3266648e-32 0.0011561322 -0.00062160427 -5.755065e-33 0.010612734 -1.1279432e-29 -0.00090784393
0.00031862542 0.0027218997 -8.515411e-06 -0.0023789178 0.0014670535 0.0008864955 -0.00069388514 0.034644637
0.019658893 -0.0014192929 -0.0020376788 -4.3602912e-32 0.017146021 -0.0002763226 0.00804279 0.0003578683
-0.0016547814 0.0011942311 0.0059212996 0.013493344 0.00032857267 0.002922673 -0.0018524801 0.004576976
-6.0621427e-38 -7.623958e-36 -0.0012158734 0.0005543188 -5.743389e-23 -0.0057690563 -3.3737577e-21 0.0015000261
0.011213742 -0.010619136 -0.00012006857 0.0014401213 0.0081866 -0.003830669 -0.0006916641 -0.011144052
-0.0034371563 0.0073772543 -0.0032696142 -4.5966235e-25 -0.0009298916 0.0006775634 0.002736045 0.00031599458
0.0013596262 -0.002410642 0.021268547 -0.018415933 -0.0070749577 0.0030519834 -0.0048237513 -0.033876527
-6.282909e-13 -1.5296009e-15 0.0058164448 -0.012851293 8.338552e-28 0.03207709 -2.7267737e-20 -0.010255724
-0.029324032 0.016499504 -0.0004668096 -0.01375356 -0.0014112847 -0.00582339 -0.0034615789 0.20610963
0.08168914 -0.007620762 -0.010380008 -4.0449587e-14 0.07105232 -0.002456049 -0.009236042 -0.000740329

bias f4 [32]
00000000: 1994 01bd 9c96 17bc 8484 69bd 8ef0 8b3d
00000010: ffee f4ba 3a10 01be 81ee 16bd ce61 10be
00000020: e268 b9b4 0d7f cba4 ef56 80b8 14cf a9bd
00000030: 3789 4fa2 a32d e5bc 4d91 cb9e bbd1 21bd
00000040: 5116 8a3c 3e79 e0bc a394 11ba 2db1 bc3c
00000050: 8304 1d3a 8cfb 93bd befa 9abc b7b3 abbd
00000060: 9b49 223e 28b8 cf3a e217 20bc befc d4a0
00000070: 6c2b 213e 4b2c a53c 7837 f7bd bcca 90bc
-0.031635378 -0.009252217 -0.057011142 0.068329915 -0.0018686949 -0.12603846 -0.03684855 -0.1409981
-3.4535248e-07 -8.825245e-17 -6.119708e-05 -0.0829145 -2.8126372e-18 -0.027975863 -2.1553556e-20 -0.039506655
0.016856344 -0.027401563 -0.00055534596 0.023033703 0.0005989747 -0.07225713 -0.018918391 -0.08383887
0.15848391 0.001584773 -0.009771319 -3.6081448e-19 0.1573922 0.020162722 -0.12071127 -0.017674796

weight_node f4 [32, 32]
00000000: 4363 9e39 fe2c a938 2221 a5bb b910 683a
00000010: 9d96 ab3b 752c c73b 74a0 92ba 4005 ce3b
00000020: e194 a538 1fe4 190e ab77 c2b9 3013 353b
00000030: 5410 0000 d56b 933b 1003 0000 a055 e03a
00000040: 9fd9 5d3b 7611 3bbb 02e8 8539 a210 c1ba
00000050: 65ff 1139 832e a33b 65f4 3fbb 57ca b23b
00000060: 4f8a 14bb bf3c 413a eb69 02bb 6cad f939
00000070: 2d3e 34bb f0b8 89ba e816 193c 2745 803a
00000080: 5c4a a0ba eeb6 80ba c5fd d13b b368 a3ba
00000090: f218 ebbb 72bf bbbb 52ed e9ba 73d7 4cbc
000000a0: e304 3e3a ba7e 4383 f2c5 d3b9 4766 eebb
000000b0: 8213 0080 ddfd 37bb ef10 0080 41f5 53bb
000000c0: 7044 153b 551e 4f3c 9869 6eba 1bfa e03a
000000d0: 5b95 4e3c 2d4a f7bb beb0 1f3c d642 ed3c
000000e0: 2ad7 5f3c 38bf a43a c1c7 76bb 0bf0 08bb
000000f0: f53c 6b3c 260a 083a f0f3 3bbc 8996 ccba
00000100: fd72 18bc 4102 80bb a24c fb3c 6b7d a33c
00000110: 562b 00bd 0edb 8dbc 09d3 f6bb affb 55bd
00000120: 04b5 d6bb 84d4 aa83 5468 6839 b5fe 06bd
00000130: d015 0080 a21b 37bc 0114 0000 16c4 7cbc
00000140: 5be9 ae3c 4b4c fd3c d249 1dbb f4df 8b3c
00000150: 8452 633d ace3 17bd 786b 8d3c e01e c83d
00000160: 2743 313e 521c f03b 56c7 71bc 06df 29bc
00000170: e385 053d 4e7c 303c 6f79 7dbd c180 e6bb
00000180: 94e3 e3bb 91fe cfba b4c1 d53c a3e3 21bd
00000190: a26f bebd 4650 9939 65ea 55bc 5a95 20bd
000001a0: c9dc ef3c c1d1 949a 9f94 b7bb e182 fbbc
000001b0: 0d38 83a5 6caf 6abc 26f1 4aa1 2c35 e5bb
000001c0: 81e2 cb3d 6139 023d 189a 8739 37e5 03bb
000001d0: 595e ea3b 9a3c 103d 7920 b53d 4bb8 523d
000001e0: 0034 31be 5a4b 533c cd48 e3bc 51eb 2fbc
000001f0: 3420 753d f133 0bbb 35ab ad3c 9c1b ffbb
00000200: 2411 a439 001d 5cba 7dbb 6eba cdd8 b5bb
00000210: ce77 143b aad0 133b c793 76ba 0a02 d6bb
00000220: 15c8 1f3b df00 dd9b 6be3 0bba 0446 87ba
00000230: 063a b19e e23b 653b af00 0080 ea11 67b9
00000240: db83 45bb f333 843c 5065 14ba 0c42 a3bb
00000250: a2e2 99bb bdb4 053a 0b8a 8a3c 8f74 013d
00000260: fcec 9fbb 1866 3dba 400d 5dbb 7f35 a2b9
00000270: 3aa2 4a3c f194 92bb 3050 dd3a d3f9 a1b9
00000280: 8dcc 3739 2c17 32bb 0954 c8bb 4e39 2abc
00000290: 4297 e43b bd0f 513b d41f 38bb 487f 17bc
000002a0: 3763 d43b 1031 2819 012f 33b9 22b7 b2ba
000002b0: 5b54 5019 f6f9 1a3c 0e04 0000 7fce 06ba
000002c0: 858d 8ebb bc00 103d 942f 95ba 8b57 14bc
000002d0: bbf6 f4bb ebe4 8e3b 88e3 123d fb8e 963d
000002e0: ef03 683b 10d2 35bb 4da9 01bc f76b 1bba
000002f0: da53 063d f04e 07bc c8c2 e53b 417e 4039
00000300: cb5b 72b8 d9d9 60b8 f657 98bb 011c be3b
00000310: 5c70 7c3b ad35 9c3b 690c 88ba 38e6 463b
00000320: e578 1338 6c82 2ea1 f09d 82b9 b53d 1d3a
00000330: 19c9 8ea4 a0bf 483b 7b19 0080 50e3 7f3a
00000340: aa33 073b 5944 c6ba 4fe7 fb38 9a83 37ba
00000350: 6474 163a 41b7 223b e2a3 18bb 10a0 0b3c
00000360: d80f 2fb9 7af6 a03a 911a dbba aacd 5bb6
00000370: 7953 80ba 5402 ecb9 2a69 b83b f09d 2f3a
00000380: 7df1 10bb 5a37 d3bb d6d3 d4bc ffda 20bd
00000390: 5e67 d73c 8cc0 4d3b 2761 fcbb a11d 4dbd
000003a0: 61a0 903d 6d16 fb9e df3e 95ba 9140 febb
000003b0: 348d 872a 1db6 a73c fd21 3d98 3af1 76bb
000003c0: 6ab5 04bd 21a6 043e db88 a6ba 152d c7bc
000003d0: 2316 b7bc fe5f e53c 22e1 d83d 87dd 803e
000003e0: b9da 3cbd f00a d5bb 8276 b3bc 897d 22bb
000003f0: dfdb 853d 359a c3bc 408d 39bd 7808 05bb
0.00030210064 8.0669284e-05 -0.00503935 0.00088525895 0.0052364604 0.0060782977 -0.0011186735 0.006287247
7.895544e-05 1.8968542e-30 -0.00037091723 0.0027629845 5.857e-42 0.0044989386 1.099e-42 0.0017115362
0.0033851636 -0.0028544343 0.00025540596 -0.0014729688 0.0001392342 0.00497991 -0.0029289958 0.0054562497
-0.0022665446 0.00073714176 -0.0019899558 0.0004762219 -0.002750288 -0.0010507386 0.00934384 0.0009786234
-0.0012229192 -0.0009820142 0.0064084255 -0.0012467116 -0.0071746046 -0.005729609 -0.0017847216 -0.012502539
0.0007248653 -5.7450825e-37 -0.00040392537 -0.007275376 -6.998e-42 -0.0028074898 -6.075e-42 -0.0032342228
0.0022776388 0.012641509 -0.0009094714 0.0017164381 0.012608851 -0.0075466842 0.009746728 0.028962534
0.013662139 0.0012569195 -0.0037655684 -0.002089503 0.014357795 0.00051895005 -0.011471733 -0.0015608828
-0.009304759 -0.0039065187 0.03067619 0.019957265 -0.03129133 -0.017316367 -0.0075324816 -0.052241977
-0.0065523405 -1.0040493e-36 0.0002216411 -0.03295775 -7.825e-42 -0.011176022 7.176e-42 -0.01542761
0.021351507 0.030920168 -0.00240003 0.017074563 0.055498615 -0.03708236 0.01726316 0.09771514
0.17310773 0.007327595 -0.014756998 -0.010368114 0.032598387 0.010771824 -0.061883386 -0.0070343916
-0.0069546197 -0.0015868713 0.026093341 -0.039523732 -0.09298636 0.00029242242 -0.013056372 -0.039204933
0.029280083 -6.155024e-23 -0.005602434 -0.030702056 -2.276286e-16 -0.01432405 -6.875942e-19 -0.006994864
0.099553116 0.031793002 0.00025864015 -0.0020125636 0.0071523604 0.035214044 0.08844084 0.051445287
-0.17304993 0.012896383 -0.027744675 -0.010737256 0.059845164 -0.0021240676 0.021199802 -0.0077852737
0.00031293288 -0.00083966553 -0.00091069174 -0.0055495263 0.0022654417 0.0022554793 -0.0009406176 -0.006531005
0.0024380733 -3.6561946e-22 -0.0005336317 -0.0010320549 -1.8764602e-20 0.003497832 -2.45e-43 -0.0002203655
-0.0030138406 0.016138053 -0.00056608487 -0.0049822386 -0.004696206 0.00051004795 0.016911527 0.0316053
-0.0048805457 -0.0007224991 -0.0033729821 -0.00030938906 0.012367779 -0.0044733216 0.001688486 -0.00030894447
0.00017528441 -0.0027174456 -0.0061135334 -0.010389639 0.006976039 0.003190025 -0.0028095143 -0.009246655
0.006481554 8.6953045e-24 -0.0001708828 -0.00136349 1.07703834e-23 0.009459009 1.455e-42 -0.00051424647
-0.0043503665 0.03515695 -0.0011381977 -0.009054075 -0.0074757016 0.0043607852 0.035861522 0.0735149
0.0035402735 -0.0027743615 -0.0079139 -0.0005928869 0.03279481 -0.008258566 0.007011745 0.0001835758
-5.7782785e-05 -5.3608648e-05 -0.0046491576 0.005801678 0.003851912 0.004767141 -0.0010379675 0.0030349623
3.5160123e-05 -5.9126105e-19 -0.00024913205 0.000599827 -6.1923356e-17 0.0030631796 -9.14e-42 0.000976135
0.002063016 -0.001512657 0.00012011697 -0.0007000506 0.00057393895 0.0024828466 -0.002329104 0.008522049
-0.00016695203 0.0012280487 -0.0016716291 -3.2753255e-06 -0.0009790502 -0.00045015162 0.005627771 0.0006699255
-0.0022116594 -0.0064458074 -0.025979917 -0.03927135 0.026294407 0.0031395284 -0.007702011 -0.050077084
0.0706184 -2.6584934e-20 -0.0011386535 -0.0077591618 2.4078797e-13 0.02047258 -2.4444837e-24 -0.0037680403
-0.032399572 0.12953998 -0.0012705581 -0.024313489 -0.022349423 0.027999874 0.10589816 0.25169012
-0.046107028 -0.006501548 -0.021907095 -0.0024794063 0.06536078 -0.023877243 -0.045300722 -0.0020299237

bias f4 [32]
00000000: 3644 0cbd 9dcd 32bc f3de 21bd 4310 5d3d
00000010: 7f5d 10bd 6ac0 0dbe 1e92 18bd 0a05 e7bd
00000020: 1580 f7b8 8cb8 859a f228 c7ba 1795 79bd
00000030: 2068 73a1 cbb3 00bd b4d9 ca94 bc9b 6dbc
00000040: 7428 2e3d be3f 383d f95a 88bb 381b 8a3c
00000050: df8c 4b3c 13c2 c3bc c252 013d 060d 613d
00000060: 9e34 2b3e 3c59 ac3b cf4f 1fbc 9699 96bc
00000070: d6f8 103e 6789 373c 104c cfbd 7fe6 2dbc
-0.03424474 -0.01091328 -0.03951926 0.053970587 -0.035245415 -0.13842931 -0.037248723 -0.11280258
-0.00011801735 -5.530566e-23 -0.0015194698 -0.0609332 -8.246941e-19 -0.031421464 -2.0482656e-26 -0.014502462
0.042519048 0.044982664 -0.0041612354 0.016858682 0.012423723 -0.023896253 0.031573065 0.05494406
0.1671929 0.005259661 -0.009723618 -0.018383782 0.14157423 0.011202193 -0.1012193 -0.010614037

weight_node f4 [32, 32]
00000000: eb6d 4fba 2518 10ba 07a3 0cba 420b 243b
00000010: 539f 173b 91f9 723c 5af3 e93b d5c3 7439
00000020: 44aa a6b9 3934 b58e 6ecd 55ba 32f1 3c39
00000030: d612 0080 db03 8bba ef09 0080 d17a 9439
00000040: 0049 45bc b69f 443c b437 a939 c599 77bb
00000050: 5198 b4bb 8cff ec39 324c 2a3c 3940 b13c
00000060: 6530 ebbc 75f3 85b8 e1b7 933c 8803 a4b9
00000070: 84a3 a13b 9ea7 3dbb 8f77 1b3b 83fe 20ba
00000080: 2ce5 39ba 8a1e b0ba c23f 0d3c 2b46 443a
00000090: ed05 d4bb a171 a53a 542f 06bb a321 2bbc
000000a0: df6c 8db9 656a 890f f973 ceb9 829f 35ba
000000b0: f705 0080 bd09 9b3a 5820 0080 416f 71ba
000000c0: e09a 3c3c 4416 203b a177 cbba 04fa 343b
000000d0: a64b 5b3c cf20 b6bb bb64 05bb 36c2 1e3c
000000e0: b134 6c3c 8715 a03a 36b1 c7bb ed02 63b9
000000f0: 3b55 153b ea57 033b f18d 87bb aec6 43ba
00000100: cf2d 8abb a56c c8bb 248f 103d 911c 263d
00000110: 9b1a 12bd dab5 74bc 1edd dabc ffd0 38bd
00000120: ad8e ebba d637 1a90 3f0f d53a a922 a0bb
00000130: c322 0000 8def 323c 1a07 0080 2136 c5bb
00000140: 38df ab3d 6a2f 8abc 4dbd babb b45f fd3c
00000150: f3c2 aa3d 4108 c0bc 24cd 19bd bc83 8b3c
00000160: f5ff 9f3d 0f5d fe3b bc51 10bd 9100 6bba
00000170: ce52 e13b 6f43 c23c 4de2 d3bc 74d2 45bb
00000180: ba09 bebb f62c 76bb 62da ab3c e8aa a53c
00000190: 42ad fdbc 9a14 a53a d234 f4bc 5c8c 42bd
000001a0: a1fc 50bb 2cf0 988d c287 7cbb a3f6 e1bb
000001b0: 929f cc8f 6e7d b23b cde0 0692 9818 76bb
000001c0: b680 8a3d d597 f7bc fabf 6e39 21c7 223c
000001d0: 1de4 013d 2e09 dcbc 2a2c 3cbd 196d ff3b
000001e0: 1589 8e3b b59e 973c 6d92 c5bc cf60 bcba
000001f0: 44aa 1e3c b3a9 003c fa98 00bd 5cd3 13bc
00000200: 482b 8ebb 57bc bbbb 7b4b 153b 64b6 95bc
00000210: 6318 84bc d9cf c73c 5c92 3d3d 930b 223c
00000220: 070c 3dbb 9405 ca8f 172e 9ebb 801d 8bb9
00000230: c61d 0080 e704 8ebc 1d22 0080 9c20 a93a
00000240: a87c 5cbd b7a6 b03d 997b 053b beea c8bc
00000250: a587 1fbd 289a b5bb 20a9 c43d 8e1d 883d
00000260: 0810 11be 9982 10bb d099 dc3c d602 edba
00000270: 4fa1 203d fe08 9ebc 92a0 0f3c 14f9 a4bb
00000280: 415c 3fbb ba81 94bb 884c 0bbb e414 f3bb
00000290: 7f83 343c ce7c de3c 1fa9 8a3c d497 433b
000002a0: a6eb e5ba ad2b a610 9c81 23bb 8c4f a13a
000002b0: e608 0080 e417 04bc 2a0f 0080 4ccb 933a
000002c0: 702d f5bc 21ff 0d3d 6a3c 4e3a 5622 7ebc
000002d0: 5852 abbc 5d02 16bb af1a 2b3d 14ee 463d
000002e0: 9aa9 22bc 2a9a 07bb 22ea 8f3c b7ef 8cba
000002f0: b70a cd3c 3c7c 4ebc 1faf 1f3b 78ef 03bb
00000300: c54f 8ab8 2097 9f34 563a 8538 ed36 7639
00000310: e3e1 21b9 66b6 5339 92f5 e8b8 bf0f 98b8
00000320: ffc1 3cb6 4257 8d0a 649d ad37 56ca 6736
00000330: 3400 0080 4412 dc37 ab09 0000 5ad5 50b7
00000340: d7eb 3939 c843 50b8 adb3 3535 17df 7f38
00000350: cecd 3939 114f 3db6 7b9e 72b9 3baf 1c39
00000360: c282 fe39 ba8c f2b7 c201 d9b9 a987 f435
00000370: 0e90 a738 a0dc 0238 51b3 c4b7 1f53 82b6
00000380: fec1 8abb bc73 fcbb cbb8 603d d6ec a6bc
00000390: e8f5 4f3c 7481 483d b32c 0dbb 5a1c fdbc
000003a0: 8cda 99bb 309e 4e90 efc8 b6bb ab19 ef3a
000003b0: 1cb3 011b d902 42bc 9d05 0000 ffa8 f63a
000003c0: e3fc a1bd ea20 a03d bf72 a139 8ba1 0cbd
000003d0: 776e 03bd dd54 b6bc bc74 b33d 10d2 c43d
000003e0: bbbd 6cbd 8b71 6cbb 31e5 003e c47e e6ba
000003f0: 2fca e03d 3592 e1bc 7976 c1bc fc9e 84bb
-0.00079128024 -0.0005496762 -0.0005364869 0.0025031124 0.0023135736 0.014830009 0.0071396055 0.00023342606
-0.00031788845 -4.4670234e-30 -0.00081559166 0.0001801893 -6.757e-42 -0.0010606007 -3.564e-42 0.00028320265
-0.01204133 0.012000969 0.00032275694 -0.0037780863 -0.0055113216 0.00045203825 0.010394143 0.021637069
-0.0287096 -6.3872816e-05 0.018032016 -0.0003128315 0.0049328227 -0.002893902 0.0023722386 -0.0006141441
-0.0007091339 -0.0013436836 0.008621158 0.00074872625 -0.006470433 0.0012622365 -0.0020474987 -0.010445031
-0.0002697473 1.3550225e-29 -0.00039377788 -0.00069283706 -2.14e-42 0.0011828464 -1.1603e-41 -0.00092099985
0.011511534 0.0024427334 -0.0015523323 0.0027614841 0.013384735 -0.0055581103 -0.002035423 0.009689858
0.0144168595 0.0012213447 -0.0060941232 -0.00021649497 0.0022786397 0.0020041415 -0.004136794 -0.0007468265
-0.0042168866 -0.006116467 0.03529276 0.040554587 -0.035669904 -0.014935935 -0.026716765 -0.04512119
-0.0017971598 -3.041416e-29 0.0016255154 -0.0048869443 1.247e-41 0.010921371 -2.548e-42 -0.0060184156
0.08392185 -0.016868312 -0.005698836 0.030929424 0.08337965 -0.023441436 -0.037549153 0.01703059
0.07812492 0.0077625583 -0.035234198 -0.0008964623 0.006876326 0.023713795 -0.025864745 -0.0030185254
-0.0057994993 -0.003756342 0.020978156 0.020223096 -0.030966405 0.0012594641 -0.029810343 -0.04749714
-0.003188886 -9.4255425e-31 -0.0038533066 -0.0068958565 -2.0177417e-29 0.0054470813 -4.2560033e-28 -0.003755128
0.06762831 -0.030223766 0.00022768966 0.009935171 0.031711686 -0.026859846 -0.045940556 0.007794988
0.0043498375 0.018508295 -0.024117673 -0.0014372113 0.009684149 0.007852959 -0.03139589 -0.00902256
-0.0043386556 -0.005729239 0.0022780586 -0.018275447 -0.01612491 0.024391102 0.046282157 0.009890455
-0.002884628 -1.9920886e-29 -0.0048272717 -0.00026534125 -1.068e-41 -0.017336322 -1.2238e-41 0.0012903395
-0.05382982 0.08625548 0.002036786 -0.024525996 -0.03894772 -0.0055420585 0.096025705 0.06646262
-0.14166272 -0.0022050499 0.026928812 -0.001808251 0.039216336 -0.019291397 0.00876631 -0.0050345752
-0.0029199275 -0.004532066 -0.0021255333 -0.007418262 0.011017679 0.02715912 0.016926346 0.0029845135
-0.0017541542 6.554275e-29 -0.002494908 0.0012307032 -3.192e-42 -0.008062337 -5.44e-42 0.0011275797
-0.029928893 0.034667138 0.0007867279 -0.015511116 -0.020913288 -0.0022889592 0.041773494 0.048566893
-0.0099281315 -0.0020691254 0.017567698 -0.0010752593 0.025029523 -0.012602862 0.0024365855 -0.0020131748
-6.595211e-05 2.9726016e-07 6.3528e-05 0.0002348085 -0.00015438306 0.00020190477 -0.00011108363 -7.250858e-05
-2.8127104e-06 1.3610629e-32 2.0696498e-05 3.4539457e-06 -7.3e-44 2.623455e-05 3.468e-42 -1.2447441e-05
0.00017730832 -4.965419e-05 6.7689217e-07 6.1004506e-05 0.00017719643 -2.8209217e-06 -0.00023137957 0.00014942598
0.00048544077 -2.8914179e-05 -0.00041390775 1.8218899e-06 7.990013e-05 3.119989e-05 -2.3448521e-05 -3.8839785e-06
-0.0042345515 -0.0077042263 0.054863732 -0.020376604 0.012692906 0.04895158 -0.0021541535 -0.030897308
-0.0046952423 -4.07482e-29 -0.0055781524 0.0018241903 1.0728503e-22 -0.011841499 2.014e-42 0.0018818675
-0.079095624 0.07818778 0.00030793805 -0.034333747 -0.03208777 -0.022257263 0.087625 0.09610379
-0.05779813 -0.003607842 0.1258743 -0.0017585387 0.109760635 -0.027535537 -0.023616062 -0.0040472727

bias f4 [32]
00000000: 7ef9 d9bc 65de 3cbc 01f9 4f3d bae7 5e3d
00000010: 49d5 12bd 7e3a e8bd 12ec 58bd 203a 02be
00000020: 928b 62bb c9eb 968f e1d8 61bb 740a 8abc
00000030: 679f 4394 bf6b 10bc 6408 ae92 b770 47bb
00000040: 6573 073e a559 fe3c 6ae0 15bb 9fa6 cf3c
00000050: 346a 853c 2bd9 14bd c982 1e3d caad 55bd
00000060: 2c72 f43d 6d38 213c e7aa db3d ef99 06bb
00000070: 0319 213e 48f0 c53c 96dd cebd 8858 c2bb
-0.026608225 -0.011527632 0.050774578 0.05442021 -0.035847936 -0.113392815 -0.05295951 -0.12717485
-0.0034568054 -1.4881963e-29 -0.0034461545 -0.016850688 -9.876421e-27 -0.008814751 -1.0983012e-27 -0.0030432174
0.13227613 0.031048605 -0.0022869357 0.025348006 0.016285993 -0.03633992 0.038698945 -0.05216769
0.11935839 0.009840113 0.107259564 -0.002053853 0.15732197 0.024162427 -0.10100858 -0.005930964

weight_node f4 [32, 32]
00000000: 54cb 2ab7 2262 c0b4 a2dd 0a35 3a0e 2d36
00000010: 23ed afb4 fae5 2c36 a6fd a432 70d9 2534
00000020: d4a9 40b1 5806 0000 c2ab 0534 8095 292f
00000030: 851b 0000 702d 4c34 52ee c0b5 9698 20b3
00000040: 381b 3635 3c7b f534 9174 ec34 b9c2 a734
00000050: 9721 1636 c692 ecb4 3dad 29b6 c640 b435
00000060: c07a a936 07c9 c7b4 124f 7db6 718c 14b6
00000070: 8d05 4836 47c8 ac34 c5c8 c134 b4ab 00b3
00000080: 779e 893b bb21 ac39 84eb 073a 7410 a4ba
00000090: 8cbd d5b9 8f81 c4ba 3aac 6539 5cd8 deba
000000a0: 120c 31b8 7706 0000 8643 48b9 a19e e9b8
000000b0: d941 0080 4a58 a939 6b52 9935 1044 6cb7
000000c0: 390c 463b 3c3d 813a 065d 25ba ec1b bcb9
000000d0: dd2b e53b b13a 81ba c890 f939 ad08 883b
000000e0: 341e 893a 544d 46ba 4c57 843b f65a d23a
000000f0: a4fb 57bb dcf1 cbb9 18dc 84ba e893 25b6
00000100: 38c7 3dbd 39c4 53bc e5ce 843c ff72 233b
00000110: d55b 98bc cd99 64bc 2ff1 41bb d5bf f7bc
00000120: 4e06 9536 f718 0000 cbbc 133b 68ef 57ba
00000130: 5a03 0000 075c b73b b1c4 efbc 1c1c d1ba
00000140: 3f60 7e3d 7a87 9fbb a1c4 18bc 5d23 d73c
00000150: 5321 c13d 4aba a4bc 0221 1dbd 830f cc3b
00000160: accf 7d3d 0f7c 91ba d9a7 91bd 1806 adbd
00000170: e992 093d 9752 ab3c fc2f bfba 2585 f7b8
00000180: 5bb3 dcbd 8903 eabb 9cd5 653c f5ac da39
00000190: d841 94bc 7b74 5b3c b237 51bb 753b 02bd
000001a0: cac7 7aba 2910 0080 cb03 71ba fe24 09bb
000001b0: d413 9800 665b ee3b 5e6d 9cbc 3c1d 23bb
000001c0: b9d6 d63c cfe9 a43b 1e7d f5b9 beec eb3b
000001d0: 040b 4b3d 71d1 a8bc 8377 b7bb 9e32 ee3c
000001e0: a7ce a33d 5daf 6c3c 4b9a a1bd 7178 9bbd
000001f0: 89f7 543d 34e7 bc3b 2f5f 82bc 856b adbb
00000200: bf95 143d 143d b03c cb9b 253c 8c21 34bd
00000210: 563a 2ebc c66e c13c 3b54 933c 7908 923c
00000220: 7a8c 41bc d031 0000 03e1 a3ba f897 9dbb
00000230: d95e 909c 03c6 efbc 9d66 b03d 5de9 80ba
00000240: 3169 fbbc 676d 3d3a 43d3 853b 00f6 a8bc
00000250: 9209 8dbc bbcf bc3c ce77 2a3d 28cd 923d
00000260: 651b 98bd 68d8 e5bb c767 0b3e 4777 313e
00000270: 9b75 f9bd b0ee 74bc ca92 17bd d386 06bc
00000280: a026 09bc 1266 113c 097a 76bc 0647 193c
00000290: a75a 4f3c 1a62 243c 1934 48bc eaa2 4b3d
000002a0: 0494 82bb 855f 0080 7fb8 8e3a 12c9 6cba
000002b0: 7831 bba3 1031 bebc a9ad d83c 0cb8 7439
000002c0: 458e c3bc 8ce8 c5bb 1ca6 e43a 16b5 4dbb
000002d0: e8e5 ccbc 3131 103d 2170 0d3d 41a0 e6bc
000002e0: d668 e6bc d93c 94bc 0b7e 4e3c 32b6 f63c
000002f0: e2c4 50bd fcbd 10bb 1dc9 ac3b 790a 5bbb
00000300: 3df0 bb3d c6eb 5c3c 00db e8bb 1908 3b3d
00000310: e398 2cbc 8cd4 c4bc ad1b a0bc 94c7 923d
00000320: 8268 3abb 1f19 0000 2bbf d139 a007 19bb
00000330: 6140 17a7 8dbb d4bc 22cd 4b3d cd5a 27ba
00000340: 3a50 07bd 9436 edbb ad15 c93a 7e6c 95bb
00000350: bd70 b8bc 78a2 2e3d e1af 983d 348d dcbc
00000360: 0d6f c7bd 8288 90bc 77ef 8e3d 1179 b23d
00000370: df3e cdbd 90b7 42bb c1f8 643d 2870 b8bb
00000380: 5dfe 7d3e 4d21 793c 7082 94bc e26d 2abd
00000390: 4150 733a 3ebe 223e 235f 70bb 1aba e5ba
000003a0: b0f8 89bc 5d53 97b8 b55d dfba 207e 71bb
000003b0: 50e1 91b3 f883 e03b 5e8c 153d 5d94 263a
000003c0: 46a0 d7bc f92c dfbc 0fb3 bb3a 41ce fbbc
000003d0: b782 3bbc 2ad9 253c 6a50 9b3d 8785 f23d
000003e0: 32d5 943c 5e58 f33a 7b6b 16bd 8c28 443e
000003f0: c987 8abd 8017 c4bc ed65 18bd 7f78 65bb
-1.0180131e-05 -3.5834188e-07 5.1731524e-07 2.578729e-06 -3.276883e-07 2.5763861e-06 1.9207459e-08 1.5445926e-07
-2.8036213e-09 2.276e-42 1.2449075e-07 1.5423574e-10 9.872e-42 1.901551e-07 -1.4374475e-06 -3.739168e-08
6.783989e-07 4.572447e-07 4.404324e-07 3.1247853e-07 2.2371294e-06 -4.4065217e-07 -2.52838e-06 1.3429897e-06
5.0508825e-06 -3.7212905e-07 -3.7745963e-06 -2.2135466e-06 2.9805553e-06 3.2183218e-07 3.609513e-07 -2.9958485e-08
0.0041997987 0.00032831528 0.0005184936 -0.001251711 -0.0004076775 -0.0014992225 0.00021903301 -0.0017001736
-4.221133e-05 2.319e-42 -0.00019098641 -0.00011139853 -2.3622e-41 0.00032299972 1.1423375e-06 -1.4082543e-05
0.0030219688 0.0009860168 -0.0006308112 -0.00035878958 0.0069937543 -0.000985941 0.0004760085 0.004151425
0.0010461272 -0.00075646234 0.004038727 0.0016048837 -0.0032956386 -0.00038899377 -0.0010136394 -2.4673009e-06
-0.046332568 -0.012925201 0.016211936 0.002494037 -0.018598476 -0.013952685 -0.002959322 -0.03024284
4.44128e-06 8.956e-42 0.002254295 -0.00082372734 1.202e-42 0.0055956873 -0.029268594 -0.0015953812
0.062103506 -0.004868445 -0.009324224 0.02626198 0.09430184 -0.02010836 -0.038361557 0.006227435
0.06196563 -0.0011099594 -0.071120925 -0.08448428 0.03358737 0.020913405 -0.0014586444 -0.00011802678
-0.10776397 -0.0071415347 0.014027979 0.00041709063 -0.018097803 0.01339447 -0.0031924066 -0.031794984
-0.0009566514 -5.797e-42 -0.00091939856 -0.002092659 1.3966108e-38 0.007274079 -0.01909512 -0.0024889251
0.026225435 0.005032755 -0.0004682326 0.0071998527 0.049571052 -0.020607682 -0.0055989637 0.02907687
0.079984 0.014446107 -0.07890757 -0.07591332 0.05199388 0.0057648662 -0.015914528 -0.0052923583
0.03627562 0.0215135 0.010107945 -0.043977305 -0.010634026 0.023612391 0.0179845 0.017826306
-0.011813277 1.787e-41 -0.0012502972 -0.004809376 -9.553638e-22 -0.029269224 0.08613322 -0.0009835173
-0.030689808 0.000722608 0.0040840223 -0.020625114 -0.017216478 0.023048272 0.04161816 0.07168037
-0.074271 -0.007014323 0.13613807 0.17330657 -0.121806346 -0.014949486 -0.037005223 -0.008210856
-0.008371025 0.008874433 -0.015043744 0.009355312 0.012655891 0.010033155 -0.012219452 0.049715914
-0.00398493 -3.4266e-41 0.0010888724 -0.00090326474 -2.0295531e-17 -0.023216754 0.026449995 0.00023338216
-0.02387155 -0.0060396846 0.0017444524 -0.0031388453 -0.025011972 0.035203163 0.034530763 -0.028152587
-0.028126162 -0.01809542 0.012603293 0.030116174 -0.050969012 -0.0022085896 0.005272998 -0.003342299
0.09176681 0.013483947 -0.007106185 0.04566202 -0.010534498 -0.024027131 -0.019544447 0.07166973
-0.002844364 9.012e-42 0.00040006018 -0.0023350492 -2.099036e-15 -0.025968337 0.049756177 -0.0006384075
-0.033035494 -0.0072391722 0.0015341543 -0.0045600524 -0.022514695 0.04263541 0.07455421 -0.0269228
-0.09737978 -0.017643217 0.06979268 0.08714498 -0.10021757 -0.0029711463 0.055901293 -0.0056286044
0.24804063 0.015205693 -0.018128604 -0.0416087 0.0009281673 0.15892884 -0.00366778 -0.0017526776
-0.016842216 -7.215769e-05 -0.0017041477 -0.0036848858 -6.793073e-08 0.0068516694 0.036510818 0.00063545053
-0.026321542 -0.027243124 0.0014320331 -0.030737998 -0.011444739 0.010122577 0.07583697 0.118418746
0.018168066 0.0018565764 -0.036723595 0.19156092 -0.0676418 -0.023936987 -0.03720658 -0.0035014448

bias f4 [32]
00000000: 21f7 623e 9b3f b0ba 5601 2639 7b65 513d
00000010: 4798 86bc cfd0 b4bd 8cc9 47bd e888 a0bd
00000020: 59e8 8abb f9c4 8bb6 e224 293a f9d4 b8bb
00000030: 3e96 f9b0 34f3 3ebc 3fb4 82bb 941c a6ba
00000040: 3d40 803d d26e e8bc 3d7c 26bb fcea b53c
00000050: 6624 2f3c 3868 58bc 75d9 123b 50e6 01bd
00000060: 7e2d 333e 77f7 993b 901f 063e caf2 283e
00000070: bebf 4d3e b9ce 903c c419 cbbd 3f42 57ba
0.22164585 -0.001344669 0.00015831491 0.05112217 -0.016430033 -0.088288896 -0.048776194 -0.07838613
-0.004239124 -4.1654534e-06 0.00064523343 -0.0056406227 -1.8159836e-09 -0.011654664 -0.003988772 -0.0012673312
0.062622525 -0.028373156 -0.0025403642 0.022206776 0.01068983 -0.013208441 0.0022407447 -0.031713784
0.17497823 0.0046986896 0.13097978 0.16498867 0.20092675 0.017676698 -0.09917024 -0.00082114706
